AI2022SPRING/AI_HW4_updated/Tables/DQN.pt (torch, 9559 bytes, 6 tensors)

fc1.weight f4 [32, 4]
00000000: d07e 1cbf 9d46 8fbd aa2d c53f 9e32 9b3e
00000010: 9d64 c83e be3e 50bd 94e0 51bf 6e7e 993e
00000020: 4110 1dbe f09b 44be def6 47bf cb66 4cbe
00000030: b9fb 023d 8770 1fbd 2ebf 883e 6944 ff3c
00000040: f00d 30bf 7f30 ccbe 7191 ab3f e250 113e
00000050: 214d 533f 4aa4 c83e ab79 2a3f 83cd 843e
00000060: ebd4 453d f40e ad3d b9eb cb3d 75f4 37be
00000070: 404c 7bbe 9064 ae3c e230 17bf eb43 783e
00000080: d02e d53e 1523 bdbe 4bd2 90bf 8979 bcbe
00000090: bf11 5abe 22b2 0b3f 0ad0 0040 a531 ef3e
000000a0: 6d40 d0bd 5daa ea3c f357 9b3f 3faa 873e
000000b0: 773c 84be d5eb 513e 5fc2 133e 563a fabd
000000c0: ef4a 2b3e 1aa4 81be d1ca 50bf 8ece bbbe
000000d0: 5e7d 8e3e 7c97 17bf 5962 93bf 40e2 913d
000000e0: a457 f03e 1fdd 0c3f 3f9c 813f 0baf b83e
000000f0: 95ee 873e e27b 063e 2df5 11bd 7bda 323e
00000100: d16c bc3e c254 09be f574 533d 14ec de3d
00000110: 1472 963e b534 e3be 4174 73bf 9893 e5be
00000120: 2988 4fbf 923a 12bf bd35 a1bf 9482 e6be
00000130: 0b1a 23bf 11fa 123f 3a67 973f d544 113f
00000140: 3c62 6f3f d063 783c 1944 96bf 643a 89bd
00000150: c152 17be 9553 3c3d bcb1 483e 979f 0cbd
00000160: 4d6a 5c3e 1e52 fbbe d2e5 1bbf f32a 14bf
00000170: 8ca7 c43c 5549 a83e 980d 28bf 4506 b63e
00000180: 743d e03d 50a7 ee3d 49c3 39be a66f 143e
00000190: 35c6 a9bd c31a 82be 5144 e3bd 3d6b 313e
000001a0: 196a a23e 3d34 a13d 4d20 03be f103 b93d
000001b0: 3267 fd3d 559d 05bf 2a1b b0bf 4e46 06bf
000001c0: 23e3 233f 30a1 943e 26f7 10bf 12de 4e3e
000001d0: ebbd 10bd 273c 503f 3670 da3f 280a 1c3f
000001e0: 5ce8 e93e a5f4 bdbe 2b46 9e3d 88b1 04be
000001f0: 312b c73e ad92 9dbd 4d6d 91be 8dec 3abd
-0.61131 -0.0699589 1.540456 0.30312055 0.39139262 -0.050841086 -0.81983304 0.2997927
-0.15338232 -0.1920011 -0.78111064 -0.19961087 0.031978343 -0.038925674 0.2670836 0.03116055
-0.68771267 -0.3988075 1.340376 0.1419101 0.82539564 0.39187843 0.665919 0.25938043
0.048298758 0.08450118 0.0995707 -0.17964347 -0.24540806 0.021288186 -0.59058964 0.24244659
0.41637278 -0.36940828 -1.1314176 -0.36811474 -0.21295832 0.54568684 2.0126977 0.46717563
-0.10168538 0.028645689 1.2136215 0.26497075 -0.2582738 0.20500119 0.14429615 -0.12218158
0.16727804 -0.25320512 -0.81559473 -0.36681026 0.27830023 -0.5921552 -1.1514388 0.07123232
0.46941864 0.55024904 1.0125808 0.36071047 0.2654921 0.13133195 -0.03563421 0.17466156
0.3680177 -0.13411239 0.05162521 0.10884872 0.2938391 -0.4437615 -0.95099264 -0.44839168
-0.8106714 -0.5712062 -1.2594525 -0.45021498 -0.63711613 0.5741282 1.1828377 0.56745654
0.9350927 0.015160516 -1.1739532 -0.0670059 -0.14777662 0.045978148 0.1959905 -0.034331884
0.21524926 -0.49086088 -0.6089755 -0.57878035 0.024005674 0.32868448 -0.6564574 0.35551658
0.10949221 0.11653006 -0.18140902 0.14495715 -0.08289758 -0.25411043 -0.11097015 0.17326064
0.3172157 0.07871292 -0.1280529 0.09033955 0.123731986 -0.52193195 -1.375829 -0.52451026
0.6401846 0.29029226 -0.5662712 0.202019 -0.03533737 0.81341785 1.7065494 0.60953
0.4568509 -0.3710071 0.07728227 -0.12958348 0.3890014 -0.07693992 -0.28403702 -0.04563575

fc1.bias f4 [32]
00000000: 226f f3be 9b9a 653f 7d6a 4e3f b425 5b3f
00000010: a36f a0be a13c 65be ded1 413f 8ea0 7c3f
00000020: b06b 653f 49af 8abe 0fe4 a53e 2cbd 3b3f
00000030: a4bb dbbe 5195 bf3d 398a c03e 32a5 7c3f
00000040: 49fb 683f 7c50 f1be 0382 513b 6357 d63d
00000050: 488e 8fbc 59b7 96be 68f5 91be 258c 4d3f
00000060: 95ee 133f dce0 4d3f 6b4e 793f 0189 17bc
00000070: d129 88be 78b9 ef3a b327 e83e 9aa6 4d3f
-0.47545725 0.89689034 0.8063124 0.85604405 -0.31335172 -0.2238641 0.75710857 0.98682487
0.89617443 -0.27086857 0.32400557 0.7333553 -0.42916596 0.09354652 0.37605456 0.9868957
0.9100843 -0.47131717 0.0031968362 0.104658864 -0.0175239 -0.29436758 -0.28507543 0.8029197
0.5778592 0.80421233 0.9738528 -0.009248973 -0.26594403 0.0018289527 0.45342788 0.8033234

fc2.weight f4 [50, 32]
00000000: 0ec2 e5be 58e1 55bd 9c2b d33e fbac 473e
00000010: 26ea a1be eb96 8bbe 50e6 603e 84f0 653e
00000020: c39a b03e 926a 41bf 1cf1 913e 5040 013f
00000030: c9a2 5bbf 8252 0b3c 1c76 84be 69cf 713e
00000040: 094c c53e 998f 33bf cb9b cabe d5f5 f1bd
00000050: 36cf 0ebf 9fbd 0cbe f041 aabe 5f22 e03d
00000060: 1ac7 383e 869c ba3e 37ae 1c3e 6a82 1dbf
00000070: 7601 d7be b3ff 763d 4d38 a8be 4ad3 70bd
00000080: 404c 09bf fc1e 93bb e732 1d3f 3778 c43e
00000090: a377 69be 4f70 c9bd 7d39 173f 8449 003f
000000a0: 0052 aa3e 5c83 4abf 293d 213e f441 cc3e
000000b0: e34b 64bf 1d84 78bd 153d 91be 20a4 ac3d
000000c0: 9ed3 903e 1d9c 36bf ceb8 17bf a9d8 12be
000000d0: 0878 28bf 12cc 723b 29e5 eebe 0596 c83e
000000e0: 5b3e 743e 7cf3 ad3e 5d63 143e ee44 fcbe
000000f0: ca31 14bf 1fca 083e b174 863d c119 c03e
00000100: 0add ecbe 006c 23bd 8b89 e53e 7f33 ab3e
00000110: 746b 8f3d 7cba 84bd 1dd5 503e ca59 963e
00000120: df33 a33e d3b5 11bf f0a3 243e bc1b 593e
00000130: d5ac 2ebf c707 26be 0216 c1be 68e1 ad3c
00000140: 05d8 9c3e 11fc 2abf a732 e9be c91b 66be
00000150: 467e 92be b24d a43c a731 19bf fc06 163e
00000160: bd41 593e 47c7 bd3d 91fd 16be 16a9 0bbf
00000170: 1f23 b7be fbba bb3e d007 d1bd a226 02be
00000180: d3de cfbd 68ec a2bd f428 04be 5bae 2d3e
00000190: 2b6c 1d3e 4038 ebbd efd8 22be 2fec 0bbe
000001a0: 7378 ffbd c86a 8ebc eac6 0cbe 67c2 303e
000001b0: a3a9 083e 942d 14be 809c b43a 1d1e e6bd
000001c0: 6e7f db3d ee55 a53d 1831 203d b50e 27be
000001d0: 9aa2 24be 0018 b9ba 142f d2bd 9dd8 11be
000001e0: 60e5 08bd 9f2e 12be 6fd2 0f3e aab6 d9bd
000001f0: 806a 75bc 4876 8dbc 1c38 803d 3c7f 853d
00000200: 07e3 12be 72c4 f23d d3a8 1d3d 6df2 89bd
00000210: f88e a13c 4d5d c5bd c468 053d 9666 1cbe
00000220: 543c c33d 8e76 b23d 7adc 0dbe 6941 bd3c
00000230: 6d80 0fbe aa90 1fbe fcb9 bebd 04d8 5e3d
00000240: c372 37be d5f8 343e 0163 d3bd 7395 063e
00000250: cfa2 2abe f3a9 2b3e 52a7 d03d a548 353d
00000260: a80c 8d3c 71bf d7bd eceb bcbd ac47 e5bd
00000270: 36d9 e93d 729c dc3d fb15 03be b40c 673d
00000280: 7951 f8bd 70bb 19bc 4a71 05be 370e 313e
00000290: 6093 65bd b039 333c 40a8 793b ae2a 993d
000002a0: e0a3 63bd e414 c4bd 434d 273e f2e1 e83d
000002b0: e08d ef3c fe49 b43d d14c 92bd 0050 083a
000002c0: 560c 8abd 3009 b3bc 70b3 00be 869d f93d
000002d0: 5888 453d 25f4 303e cbff c0bd b4bb 1fbe
000002e0: c021 533b 8b63 0ebe 886f 5abd fe1a f93d
000002f0: 1866 d4bc 3822 683d 36f4 d63d 0044 e539
00000300: fbc0 8dbe 1c1e 953e 8f3c 4a3f e39b d83e
00000310: 172b 0bbd 268e 70be a5c8 2e3f 3bd1 ef3e
00000320: 0d7e e83e a3ab ffbe afdb 953e ea4a 113f
00000330: 7741 85bf 2308 213d 474b 00bf ed89 b13d
00000340: 40cc 3a3e 7433 2bbf f591 3cbf 7db0 08be
00000350: c523 1bbf 3894 52bd 5320 d4be eaa7 173e
00000360: 8492 503e 725d 823e 398d e23d 06ac c7be
00000370: 6b65 1cbf cf1d a5bd bc6a 7f3e d5ed f53e
00000380: d489 3abf 23e6 183d 692e be3e 3899 2cbd
00000390: a113 b5be 63c9 37be 601c 00bd e71e b43d
000003a0: f231 963e 9fad 99bf 5dfc b4be aa1e 003e
000003b0: c246 0c3f 4b98 283f f7fa 7f3e 85a3 473e
000003c0: b0a7 27bd 0b65 743f 9ed9 db3e 3c0d 11bf
000003d0: 980c 833c 4901 67bd a3ac 6e3f 2dce 9b3d
000003e0: e895 5cbd 4c63 253e 61e1 2abe d147 653e
000003f0: 6071 e33c a09a f6bf 0652 f53e 7666 bf3e
-0.44874614 -0.052216858 0.4124421 0.1949958 -0.31623954 -0.2726358 0.21962857 0.2245503
0.34493074 -0.7555324 0.28504264 0.5048876 -0.85795265 0.008503558 -0.2587136 0.23614277
0.38534573 -0.7014099 -0.39571986 -0.11814467 -0.5578493 -0.1374421 -0.3325343 0.10944056
0.18044701 0.36447543 0.15300833 -0.6152712 -0.41993302 0.060302448 -0.32855454 -0.05879525
-0.53631973 -0.0044897776 0.61405796 0.38372967 -0.22799544 -0.09835874 0.59072095 0.50112176
0.33265686 -0.7910669 0.15745987 0.39894068 -0.89178294 -0.060672868 -0.28366914 0.08429742
0.2828645 -0.7133196 -0.59266365 -0.14340462 -0.65808153 0.0037047905 -0.4665921 0.39176956
0.23851912 0.33974826 0.14491029 -0.4927134 -0.5788847 0.13358353 0.06565226 0.3751965
-0.4626239 -0.03989792 0.448315 0.33437726 0.07002917 -0.064808816 0.20393796 0.2936538
0.31875512 -0.56918067 0.16078162 0.21201986 -0.6823247 -0.16213904 -0.37712103 0.021225646
0.3063356 -0.6679087 -0.45546457 -0.22471537 -0.28611964 0.02005658 -0.5984139 0.14651102
0.21216483 0.09266525 -0.14745165 -0.5455488 -0.35768983 0.36666092 -0.10206568 -0.1271005
-0.10149922 -0.07955247 -0.12906247 0.16961043 0.15373294 -0.11485338 -0.15903066 -0.13664316
-0.12474146 -0.017384902 -0.13747755 0.17261659 0.13345961 -0.14470512 0.0013779551 -0.112362124
0.10717665 0.080730304 0.03910932 -0.16314204 -0.16077653 -0.0014121532 -0.10262886 -0.14242788
-0.033421874 -0.14275597 0.14045118 -0.106305435 -0.014979005 -0.017268315 0.06260702 0.06518409
-0.14344417 0.11853875 0.03849108 -0.06735692 0.019721493 -0.09636936 0.032570615 -0.15273508
0.09532991 0.08714019 -0.13853636 0.023102479 -0.14013834 -0.15582529 -0.093128175 0.054405227
-0.17914872 0.17673047 -0.10321618 0.13142948 -0.16663669 0.16764049 0.10188164 0.044258732
0.017217949 -0.105345614 -0.09224686 -0.11195311 0.11418383 0.10772027 -0.12801354 0.0564086
-0.12124915 -0.0093830675 -0.13031498 0.17290579 -0.05604875 0.010939047 0.003809467 0.07478844
-0.055576205 -0.09574297 0.16338067 0.11371221 0.029242456 0.088031754 -0.07143558 0.0005199909
-0.06740634 -0.021854967 -0.1256845 0.12188248 0.04822573 0.17280634 -0.09423789 -0.15598947
0.0032216161 -0.1390516 -0.05332902 0.121633515 -0.025927588 0.05667326 0.10495798 0.00043728948
-0.27686295 0.29124534 0.78998655 0.42306432 -0.03397664 -0.23491725 0.6827491 0.46839318
0.4540867 -0.49935636 0.29269168 0.56754935 -1.0410603 0.0393144 -0.50114864 0.086688854
0.18241978 -0.66875386 -0.7366021 -0.13348575 -0.60601455 -0.051410884 -0.4143091 0.14810148
0.20368391 0.25461918 0.11062092 -0.3899843 -0.6109225 -0.08062326 0.2494306 0.48033014
-0.7286656 0.03732885 0.37144783 -0.04213831 -0.35366538 -0.17947917 -0.03127706 0.08794957
0.2933498 -1.200611 -0.35348788 0.12511697 0.5479547 0.6585738 0.24998079 0.19495972
-0.040931404 0.9546668 0.42939466 -0.5666082 0.015997216 -0.05639771 0.9323217 0.07607684
-0.0538539 0.1615116 -0.16687538 0.22390677 0.027764022 -1.9265938 0.4791414 0.3738286

fc2.bias f4 [50]
00000000: 8e4a 933e eb50 0e3f 27c3 683e 106a eabc
00000010: dd95 e83c 0e1f 2fbe 8182 083f 58cd 2f3d
00000020: d3aa 163e d665 2abd ff50 10be 5c26 0e3d
00000030: c012 d33e 58a5 2bbe d2d9 ec3e d588 00be
00000040: 238a ed3e 2174 b7bd b75b 89bd a15d 143f
00000050: e18e ed3e 8bca 8ebd 5ec3 b03e 0e7a 22be
00000060: a8de 073c 3e2b 32bd c013 16be ac64 e8bd
00000070: 57ce ff3e eaa1 ad3e a2d4 d53e 0c4e f23e
00000080: 4b2a 96be 5c64 f63e e00f f13e 484f 68be
00000090: 0dbb 873e 826d bbbd c344 e6bd a687 35be
000000a0: 8249 cebb 1a6b 8e3e 33fd 87bd a903 7c3e
000000b0: aea6 21be 29de eb3e 69f5 93bd 35ca 3bbb
000000c0: bdf3 1c3f 7769 7f3e
0.28767818 0.5559222 0.22730695 -0.028615028 0.028391773 -0.1710169 0.53324133 0.04292044
0.14713602 -0.041601025 -0.14093398 0.03470455 0.41225243 -0.16762292 0.46259934 -0.12552197
0.46394452 -0.08957697 -0.06706946 0.57955366 0.4639807 -0.06972226 0.34524053 -0.15866873
0.0082928315 -0.04349827 -0.14655972 -0.11347327 0.49962112 0.33912593 0.41763788 0.4732517
-0.29329142 0.48123443 0.47082424 -0.22686493 0.26509896 -0.09151746 -0.11243584 -0.17727527
-0.006295384 0.27816087 -0.06640091 0.24610771 -0.1578624 0.46067932 -0.07224543 -0.002865446
0.61309415 0.24942575

fc3.weight f4 [2, 50]
00000000: bcfc 323f 7302 0c3f e786 0e3f d988 92bd
00000010: 6ab2 a0bb d836 cd3c 76e8 d93e 6142 9ebd
00000020: dd43 5cbf 281a d9be 9eca f83d 646c 1d3d
00000030: 5c53 cf3e 408a c63c 01a6 fa3e e0c4 5abd
00000040: da70 f83e 22ac 923d 962e e0bd 0966 e13e
00000050: c551 d23e 11f2 47bf 0142 793e 00d7 debd
00000060: 0696 c5bd ffc7 47be 248f cabc 28ab 5d3d
00000070: f62d 0a3f 9198 bf3e ce3e 183f da39 213f
00000080: 0665 6ebf 2e29 65bf d0f7 c73e 11c2 acbd
00000090: f8e8 05be 6792 2fbf c051 aa3d 2309 f8be
000000a0: 522d 993a a63a 103f bc54 4cbf b6d3 08be
000000b0: 2b3d 07bd 2d80 043f 4210 57bd 8cae a7bc
000000c0: 8cf2 2a3f 371b 033f 247f 1c3f eceb fd3e
000000d0: 692b 4d3f d3ad 8ebd 935c 96bd b2e2 fabd
000000e0: febe c83e a72b c6be 900b dd3e 5e1a f5be
000000f0: 9edc 67bd ba82 62bd 6fbc d93e 2441 72bd
00000100: bf9f 1e3f a958 72bd 0354 c33e 4cb8 b63d
00000110: 9980 353d bd0f d93e 0300 173f 44ba 2c3d
00000120: 9a97 f83e d0aa 043d db2a ebbe fd19 d9be
00000130: dab7 7ebd 6162 873d 7ab7 063f 4a02 043f
00000140: aa92 203f f9d7 1e3f 39dd 02bf 0179 1fbf
00000150: 982e d23e ff92 d23e caec 02bf 1979 dabe
00000160: 30ae 673c 614a dabe a0e5 113c 50bf 213f
00000170: 983a c3bd 71fc 18bf 7848 ee3c a7b7 113f
00000180: bb15 0f3e 39cb cebb b4af 1e3f 2e86 d63e
0.6991689 0.5469124 0.55674595 -0.07155008 -0.004904081 0.025050566 0.42560166 -0.077275045
-0.8604105 -0.42402768 0.12148021 0.038433447 0.40493286 0.024235845 0.48954776 -0.05341041
0.485236 0.07161738 -0.109463856 0.4402316 0.4107801 -0.7810374 0.24341585 -0.10880852
-0.09647755 -0.19509886 -0.024726458 0.054118305 0.5397638 0.37421086 0.5947083 0.629789
-0.931229 -0.8951596 0.39056253 -0.08435453 -0.13077152 -0.6858277 0.08316374 -0.4844447
0.001168648 0.5633949 -0.79816794 -0.13362011 -0.03301732 0.5175808 -0.05250574 -0.020468973
0.6677635 0.512134 0.611315 0.49594057 0.80144364 -0.06966748 -0.07341876 -0.1225027
0.39208215 -0.3870518 0.43172884 -0.4787168 -0.05660688 -0.05530045 0.42526576 -0.059144154
0.61962503 -0.059166584 0.38150033 0.089218706 0.044312093 0.4239482 0.5898439 0.042169824
0.48553163 0.032389462 -0.45931134 -0.4240264 -0.062187053 0.06610561 0.52623713 0.5156599
0.6272379 0.620483 -0.5111881 -0.6229401 0.41051173 0.41127774 -0.5114256 -0.42670515
0.014140651 -0.42634872 0.0089048445 0.63182545 -0.0953266 -0.59760195 0.02908729 0.56920856
0.13973133 -0.006310847 0.6198685 0.41899246

fc3.bias f4 [2]
00000000: c788 7b3e 94cd 6e3e
0.24563895 0.2332061
