AI2022SPRING/AI_HW4_updated/109550112_hw4/Tables/DQN.pt (torch, 9559 bytes, 6 tensors)

fc1.weight f4 [32, 4]
000000 58 41 85 be 4e 33 82 3e 4e b0 da be 58 4c 34 3e
       -0.26026416 0.25429767 -0.42712635 0.17607248
000010 06 57 73 bf 90 98 7c bf ee d0 37 bf 83 7e 27 bf
       -0.9505466 -0.9867029 -0.71803176 -0.65427417
000020 0f 48 9b be ee 7d 25 3e d3 e6 0b be d9 0b 69 3e
       -0.30328414 0.1616132 -0.13662271 0.22758426
000030 be 74 8b be 45 9d d9 3e 23 7a 1b 3e 0f fe 9f 3e
       -0.27237505 0.425028 0.1518331 0.3124852
000040 86 a7 c0 be a9 aa 1c bd 81 e6 ba 3f 58 01 0f 3f
       -0.3762781 -0.03824869 1.4601594 0.55861425
000050 ed 8c 54 be c2 30 d0 bd a8 2d 11 bf b4 8d 9f be
       -0.20756884 -0.1016555 -0.5671029 -0.31162798
000060 65 11 59 bf 87 db bb be 7b e8 6b bc b6 b8 96 be
       -0.84792167 -0.36690924 -0.014398689 -0.29437798
000070 12 c7 86 3c cd 07 3e 3d d2 e7 0e be 9b 3e fe 3e
       0.016452346 0.04639416 -0.1395562 0.4965714
000080 1a e1 22 3f 14 ac 96 be 70 d3 fa be ba 16 74 3e
       0.6362473 -0.2942816 -0.4898944 0.23836794
000090 eb 81 59 be 63 e7 68 3e 08 7a 52 3f b1 07 13 3f
       -0.21240966 0.22744517 0.82217455 0.5743361
0000a0 29 bf c9 3d 2a 58 8d 3e 48 86 9c 3a 3c 94 cf bb
       0.09850914 0.27606326 0.0011941874 -0.0063348096
0000b0 17 d0 c6 3e c7 1e 55 3e af ab 87 3e 2c 41 69 3e
       0.38830635 0.20812522 0.26498172 0.22778767
0000c0 42 6d 5b 3c da 76 71 be a7 c9 48 bf 76 f5 9d 3e
       0.013392748 -0.23580495 -0.784327 0.30851334
0000d0 cb 19 41 3f 1a 34 dc be 30 55 9d bf 16 8d ed be
       0.7542998 -0.430085 -1.2291622 -0.46396703
0000e0 81 3d 68 3f fb 15 eb 3e 96 c6 62 bf 58 53 10 bd
       0.9071885 0.45915207 -0.8858427 -0.035235733
0000f0 e5 72 a8 be 7a 52 9d be a3 4c 21 39 6a 2e d6 bd
       -0.32900158 -0.30726987 0.00015382706 -0.104580715
000100 17 70 99 3d 0e 26 2d bf a6 0a 8c bf 9d 66 1f bf
       0.074920826 -0.6763619 -1.094075 -0.6226595
000110 d2 cf 65 be 45 4b 06 3f ea 02 df 3e d3 66 91 3e
       -0.22442558 0.524586 0.4355691 0.2839876
000120 6a e8 ce be 7d 8c 01 3f b8 c5 5c 3f 30 d7 17 be
       -0.40411693 0.50604993 0.86239195 -0.14828181
000130 f3 8d 81 3e 01 f3 25 be 24 46 72 3e df f5 56 be
       0.2530361 -0.1620598 0.23659569 -0.2099223
000140 ae f9 ef 3c 9b 66 8a bd 63 8b f8 bb 83 65 0d be
       0.029293861 -0.06757852 -0.0075849756 -0.13808255
000150 ab 6f 10 3e 16 d0 18 be 9c 56 a4 be f6 aa 0f bd
       0.14105098 -0.14923128 -0.32097328 -0.03507515
000160 fa f7 e8 bd cf f2 fb 3d c8 c2 15 3f 28 c0 ab 3d
       -0.11375423 0.123021714 0.5850034 0.0838626
000170 d6 f7 22 3f a1 9d ef be fa e9 be bf 4f f9 cd be
       0.6365942 -0.4679995 -1.4915154 -0.4022927
000180 5c ce 5d 3f 75 79 39 3f 0a dd 8e 3d d2 24 16 be
       0.86643004 0.72450954 0.069757536 -0.14662483
000190 7c a3 81 be f5 7c 00 3f 70 fa 9b 3f de 56 ed 3e
       -0.2532004 0.5019067 1.2185802 0.46355337
0001a0 4c 23 70 be 6d d7 f8 3e 6b 9c c0 3f ea c9 04 3f
       -0.23450965 0.48601857 1.5047735 0.51870596
0001b0 50 d6 39 be 91 e9 d9 be 7e af c7 bf f0 3f cd be
       -0.1814816 -0.4256101 -1.5600431 -0.40087843
0001c0 16 34 02 be 10 77 79 be f2 75 2b be 81 7e bb be
       -0.12715182 -0.24361825 -0.16744211 -0.36619952
0001d0 ea 6a 5e 3e a8 c7 09 3e bd d0 5c 3f 10 ea 7b 3e
       0.21720472 0.13455069 0.8625601 0.24601007
0001e0 90 03 0e 3e 34 68 b1 3e 59 2e a5 3f 65 3b d5 3e
       0.13868546 0.34649813 1.2904769 0.41646877
0001f0 77 9e 87 3e 85 cb db 3d a4 4b 28 be eb 21 01 be
       0.26488087 0.10732178 -0.16435105 -0.12610595

fc1.bias f4 [32]
000000 30 09 f6 be 84 ce c6 bd d5 74 49 3f 14 38 2a 3f
       -0.48053885 -0.097073585 0.78693897 0.6649182
000010 7c a9 f9 bd 4d 0b fc 3e 72 5b 8d 3e a4 45 fe be
       -0.1219053 0.49227372 0.2760883 -0.49662507
000020 1e 13 88 3e 5b 14 e2 be 51 47 e4 3e 5c 0e 59 3f
       0.26577085 -0.44156155 0.4458566 0.84787536
000030 f8 b8 ff 3e 5a 82 b0 bd 17 48 45 be f7 76 24 3f
       0.49945807 -0.086186126 -0.19265781 0.64244026
000040 41 68 90 bd cb f0 11 3f 81 bb a7 3e 1b 9d 08 3f
       -0.07051135 0.57008046 0.32760242 0.53364724
000050 9e 4d 10 3f 9a 05 30 3f 55 51 1b 3f 86 b0 14 be
       0.56368434 0.6875855 0.6067098 -0.14520463
000060 f4 6a b1 3d 03 db 45 3c ab de f7 bd 63 30 eb 3e
       0.08662978 0.012076142 -0.121030174 0.45935354
000070 ef ee 5b 3f 92 cd 25 be 34 17 19 bd ad d2 4f 3f
       0.8591146 -0.161917 -0.037375644 0.8118084

fc2.weight f4 [50, 32]
000000 a2 41 ff 3d 31 3c 22 3f 92 61 39 3e bf b2 26 be
       0.1246369 0.63373095 0.18103626 -0.16279124
000010 5a d6 a6 bf cd d9 a2 3e fa e1 a2 3e 22 88 fa be
       -1.3034165 0.31806794 0.3181303 -0.48931986
000020 3f f1 41 bf dc da 62 bf 09 08 88 bd a8 bc 94 bd
       -0.7575874 -0.886152 -0.066421576 -0.07262546
000030 d5 58 a8 3e 53 80 28 bf b1 d9 72 bf 98 3c ad 3e
       0.32880273 -0.6582081 -0.9486342 0.33835292
000040 bd cc 02 3f 5b 4a 93 bf b3 bd d4 be 1e c1 ef 3d
       0.51093656 -1.1507066 -0.4155098 0.11706756
000050 27 6e 2b 3e a1 51 d5 3e 37 02 bf be b7 86 29 3e
       0.16741239 0.4166384 -0.37306377 0.16555296
000060 28 69 51 bf a8 36 16 bf 54 9a 94 bf 29 c2 a5 3e
       -0.8180108 -0.5867715 -1.1609597 0.32374695
000070 c2 7e c1 3e ab e3 d4 bf 98 47 bf bf 36 71 29 3c
       0.3779202 -1.6631979 -1.4943724 0.010341933
000080 7b 5c ed bd 9b 1b 17 3d 14 f3 f5 3d 9c 4b b5 bd
       -0.11589905 0.03689156 0.12009254 -0.08852312
000090 ec 66 e8 3d f2 83 9b be ef ba 15 be 37 b0 bb bd
       0.11347756 -0.30374104 -0.14622091 -0.0916447
0000a0 5c 4e 6e 3e 5f b8 b5 bc 72 0d 5e 3d 44 55 94 bd
       0.23272079 -0.022182642 0.05421204 -0.072428256
0000b0 60 7b bb bc 1a 65 35 3d 65 e0 a5 3c 0b d8 1f be
       -0.022885978 0.04428587 0.020248601 -0.15609758
0000c0 4c b3 2a 3e 47 14 13 3d 0f c5 9a bd cc c8 01 3e
       0.16669959 0.03590801 -0.07557117 0.12674254
0000d0 7d c2 99 bd 1c a9 80 3c 5d 97 1f 3d 45 87 33 3d
       -0.07507799 0.015705638 0.03896271 0.043830175
0000e0 b0 fc 94 3e 29 97 08 3e 7d 84 87 3e 3a 0b bf 3e
       0.29099035 0.13338913 0.26468268 0.37313253
0000f0 ae e0 27 be 65 6a 56 3e 07 87 a6 3e c2 94 16 be
       -0.16394302 0.20939024 0.32524893 -0.14705184
000100 30 a2 07 bd 31 f4 2b 3e 2c 93 64 3e 69 30 81 3e
       -0.03311366 0.1679237 0.22321767 0.25232247
000110 85 8c e9 3d cb 10 ce be a0 a5 2d be 97 d6 00 3f
       0.11403755 -0.40247187 -0.16957712 0.5032744
000120 86 5d 30 be e4 1d 11 3f c6 78 4b 3d 3e be 0d 3e
       -0.17223176 0.56686234 0.049675725 0.13842103
000130 d3 9b 07 3d 87 84 af be d6 c5 cc 3e f5 ff 90 3d
       0.03310759 -0.34280798 0.39994687 0.0708007
000140 62 e9 ed bf c7 09 c2 3e e4 6c 0d 3f cb d8 e2 3d
       -1.8586848 0.37898085 0.5524428 0.11076506
000150 82 bf 12 3d 2b 51 90 bd 0b 4d 7d 3d cd a0 6f be
       0.035827167 -0.070467316 0.061841052 -0.23401184
000160 c4 42 bc 3e 4f 43 06 3f fc b9 c8 3e 9e 83 56 bf
       0.36769688 0.52446455 0.39204395 -0.8379458
000170 09 c4 d6 be 60 db e0 3e 6c 04 0a 3f 83 ec b0 3c
       -0.41946438 0.4391737 0.53913 0.021597153
000180 17 f1 27 be 73 9b e4 be 5a 63 02 3f 9b 19 10 3f
       -0.16400562 -0.44649848 0.5093285 0.5628907
000190 e0 67 c4 bd 78 45 84 3e 10 71 8b 3e 08 c4 c6 be
       -0.09590125 0.2583425 0.27234697 -0.38821435
0001a0 8b 17 b0 3e bf 7b ba be 84 e2 ba 3e dd c8 09 3f
       0.34392962 -0.36422536 0.36500943 0.5382212
0001b0 e7 f4 10 3f 72 2c e0 be 17 e4 5a be 42 be f0 3e
       0.5662369 -0.4378391 -0.21376072 0.47020155
0001c0 c3 61 0c bf c7 ae 17 3f 77 76 d4 3e 57 c3 d6 3e
       -0.5483667 0.59251064 0.41496632 0.41945907
0001d0 e7 c2 9d 3e 09 66 53 3e 45 52 0f 3f 89 ed 38 bf
       0.3081276 0.20644392 0.5598491 -0.7223745
0001e0 de 4f e3 bd 5e a3 3e be 99 e8 af be 3c 77 61 bd
       -0.11099218 -0.18617007 -0.34357145 -0.05504535
0001f0 63 4f c9 3e 3a 66 b2 be cc b2 19 bf ab 58 96 3e
       0.3931838 -0.34843618 -0.6003845 0.29364523
000200 56 73 9b 3d 38 56 ef 3e 45 27 c4 3c f6 4d 9f be
       0.07590358 0.46745467 0.023944506 -0.31114167
000210 8f f7 1b be e3 bb 45 3e 25 8c 51 be 5c d9 eb 3e
       -0.15231155 0.19309954 -0.20463617 0.4606427
000220 4f 65 17 3d 1c 39 ba 3e de 4b 33 3d 8e ce ba bd
       0.03696185 0.36371696 0.043773524 -0.091214284
000230 14 e5 73 3e 0a 1b dd 3e e8 0c a5 3e f1 41 e5 bd
       0.23817855 0.43184692 0.3223641 -0.11194218
000240 f1 db b9 3e 4c e3 16 bf 9b f3 13 bf 47 b2 2a 3e
       0.36300614 -0.5894058 -0.5779359 0.1666957
000250 cd d0 b1 3e 4b 2e 45 3e 54 78 c1 be 9a c0 e8 3e
       0.34729615 0.1925594 -0.37787116 0.45459443
000260 fb c5 ec 3d 99 60 e6 3d 71 b5 95 3e da 15 43 be
       0.11561199 0.11248893 0.2923999 -0.19051304
000270 8a d8 97 3d 78 ff 03 3e 3f 33 cf 3e 7f 51 69 3d
       0.074143484 0.12890422 0.40468785 0.056962486
000280 ee 7d b5 3d da f6 37 bf 26 e1 37 3d e4 28 ad 3d
       0.0886191 -0.7186104 0.044892453 0.08455065
000290 a3 ad 11 be bf 00 c9 be 30 c1 8b be 90 b0 58 3e
       -0.14226393 -0.39258382 -0.27295828 0.21161103
0002a0 0c 34 20 3e de 19 07 3f b2 5b 44 3e f0 11 95 3e
       0.15644854 0.52773845 0.19175604 0.29115248
0002b0 81 e6 12 be b3 b5 e1 be bb 50 50 3e 18 39 82 be
       -0.14345743 -0.44083938 0.20343296 -0.25434184
0002c0 fb 46 97 bf 77 d9 09 3f d3 9e 87 3e 0b 03 24 be
       -1.1818537 0.5384745 0.2648836 -0.16016786
0002d0 52 80 8f be 77 55 1a be 05 f1 9d 3e 49 8d b7 be
       -0.28027588 -0.15071665 0.30847946 -0.3584998
0002e0 bf 3b 18 3f 0f be f2 3e d1 f1 9f 3e 7b cc f0 be
       0.59466165 0.47410628 0.3123918 -0.47031006
0002f0 75 33 d4 be f0 68 a1 3e 02 5f 24 3f 73 3a 1c 3c
       -0.4144551 0.31525373 0.6420747 0.00953542
000300 4f e1 14 be 0c 60 31 bd ea 03 ed 3d a6 03 1d be
       -0.14539073 -0.043304488 0.11573012 -0.15333423
000310 1e 73 c0 3d 1f 8d f0 bd 3e 59 d6 bd 62 ef 23 be
       0.09396957 -0.11745667 -0.1046624 -0.16009286
000320 bc 0c 3f bd 60 dd 70 3d 90 af 06 3d ca c3 be bd
       -0.046643004 0.05880487 0.032882273 -0.093146876
000330 d2 d2 04 be 08 49 95 3c f0 fa b2 bd 69 3f 82 bd
       -0.12971047 0.0182233 -0.08739269 -0.06359751
000340 72 bb ba bd d4 93 53 bd 04 79 80 3d 34 8d 4f 3d
       -0.091177836 -0.05165465 0.06273082 0.05067177
000350 0e 26 ad 3d 40 19 42 3c e2 25 c1 3d 63 0c 33 3e
       0.08454524 0.01184684 0.09431054 0.17485194
000360 77 d5 b6 bd 55 31 2f 3e f0 c7 f2 bc b8 1d 4e bd
       -0.08927434 0.17108662 -0.029636353 -0.05032131
000370 b0 38 54 bc 59 ec ea bd 50 39 a4 3c 32 d7 0c be
       -0.0129529685 -0.11470861 0.02004686 -0.13753965
000380 9a 91 18 be d2 20 d8 be 2e 63 ab 3e 15 20 e7 3e
       -0.14899293 -0.4221254 0.33474106 0.45141664
000390 25 c4 62 bd 99 2b c2 3d dc 0f b3 3e 05 f1 11 bf
       -0.05536284 0.09480972 0.34973037 -0.5700839
0003a0 27 13 e4 3e 9b dc fe be d0 16 13 3d 1c 4d 0f 3f
       0.44545862 -0.49777684 0.035910428 0.55977035
0003b0 57 e7 c3 3e 0a 25 1d bf c3 9e 97 be 54 32 29 3e
       0.38262436 -0.6138464 -0.29613313 0.16523105
0003c0 e4 b4 df be a2 41 54 3f 55 7f 9d 3e 86 fe 03 3e
       -0.43692696 0.8291265 0.3076121 0.12890062
0003d0 84 66 cb 3e c6 b4 d9 3e b3 44 ee 3e c0 c3 53 bf
       0.3972665 0.42520732 0.46536788 -0.82720566
0003e0 89 7c 95 be 9b cf f3 be 97 01 4e be d1 cc 61 be
       -0.29196575 -0.47619328 -0.20117794 -0.22050788
0003f0 17 2b a5 3e 9d 0d 12 bf 72 30 03 bf 42 9b a3 3e
       0.32259437 -0.5705202 -0.51245797 0.3195439

fc2.bias f4 [50]
000000 2f 70 79 3c cd a5 f2 bd e1 5b 66 3c aa c1 56 3e
       0.015224501 -0.1184803 0.014059992 0.20972314
000010 d3 cf b2 bd 7c fc 98 3d 31 71 30 be 61 dc dc 3e
       -0.087310456 0.074700326 -0.17230679 0.43136886
000020 75 55 10 3e 8f c0 c9 3e 1a 92 ac 3e 82 87 28 3d
       0.140951 0.39404723 0.33705217 0.041144855
000030 11 c0 5c 3d 6f 55 b4 3c f5 07 0f 3d 88 c7 a7 3d
       0.053894106 0.022013394 0.034919698 0.081923544
000040 34 8e 1f 3d e7 da 1c bc fe 08 d8 3e 1c a1 24 3e
       0.038953975 -0.009573675 0.4219436 0.16077083
000050 d0 91 41 3d 20 ca 04 3f 81 4e e9 3e f9 6f 31 be
       0.0472582 0.5187092 0.45567706 -0.1732787
000060 e5 05 34 3e 21 f9 01 3e 73 49 98 3e 51 25 ab 3e
       0.17580374 0.12692691 0.29743537 0.33426908
000070 03 f3 49 be 37 58 f3 3e e3 61 26 3e 54 27 0e be
       -0.19721608 0.4752824 0.16248278 -0.1388219
000080 5b 38 a2 3e 28 f5 e5 3e 92 4d 3a bd 96 d8 f1 3d
       0.3168362 0.44913602 -0.045484133 0.118088886
000090 05 2c f0 3e d0 df b9 3c 29 da a6 3e 79 ad d7 3e
       0.46908584 0.02268973 0.32588318 0.42124537
0000a0 6e 33 6e 3e 04 99 2a bd 59 4a c0 3d 67 ff 19 be
       0.23261806 -0.041649833 0.09389181 -0.15038835
0000b0 ec 96 b2 3d e0 0c 1c 3e b8 76 fe 3d 92 5a ce 3e
       0.08720192 0.15239286 0.124249876 0.40303475
0000c0 38 bd cf 3e b1 a4 68 3e
       0.4057405 0.22719075

fc3.weight f4 [2, 50]
000000 b7 c7 86 be f8 0f c6 3e ff 40 0e bf f3 fd 14 3f
       -0.26324245 0.38684058 -0.55567926 0.58199996
000010 34 eb 09 bf d9 dd cf be ca 4a 1a bd 20 0a 06 3f
       -0.53874516 -0.40598944 -0.03766898 0.523592
000020 a2 60 37 bc 11 8d bc 3e 3a da b5 3e 59 1b 0a bf
       -0.011192473 0.36826375 0.35518056 -0.5394798
000030 f1 e4 d9 3d a4 97 fc be 4b a2 00 bf d3 c0 fd be
       0.1063937 -0.49334443 -0.5024764 -0.49561176
000040 db 3f d8 be 9b 7f e6 3e 81 30 b9 3e 9b 58 16 3f
       -0.42236218 0.4501923 0.36169818 0.5872895
000050 a7 2c c0 be f5 c9 13 3f 26 07 b5 3e 2c 01 a9 be
       -0.37534067 0.57730037 0.35357016 -0.33008707
000060 6c 60 e4 3e ea 2e a8 bd 99 d9 fb 3e 6a 18 d4 3e
       0.44604814 -0.08212073 0.4918945 0.41424876
000070 0a da 07 bf 01 02 e6 3e bd c8 20 bf 84 48 5f 3d
       -0.53067076 0.44923404 -0.628063 0.054512516
000080 cd ce ca 3e aa d6 cb 3e d6 66 eb be 97 5d 09 3e
       0.396109 0.39812213 -0.45976895 0.13414608
000090 aa ce f3 3e 41 33 d0 be 43 b2 cf 3e f6 f8 98 3e
       0.4761861 -0.40664104 0.4056569 0.29877442
0000a0 9f b0 51 3f c8 6d a7 bd d0 e8 b4 3d c4 d3 00 be
       0.8191013 -0.08175236 0.08833468 -0.12580782
0000b0 88 b8 35 bc cc 70 1b bf 3f 79 a7 bd 63 cf 1a 3f
       -0.011091359 -0.6071899 -0.08177423 0.60472697
0000c0 8a 53 c1 3e 85 6b e4 3e c0 70 46 bf f6 95 65 be
       0.37759048 0.4461328 -0.7751579 -0.22420487
0000d0 c3 1b 92 be 49 40 e0 3e 99 66 30 bf 91 77 ae be
       -0.28536806 0.43799046 -0.6890655 -0.34075597
0000e0 60 cd 0f bd 6b bc f7 3e 60 2f e1 be 81 49 f0 3e
       -0.03510797 0.4838594 -0.43981457 0.4693108
0000f0 ff a1 ff 3e d0 2f ba be 46 f3 31 3e 74 d9 2d bf
       0.4992828 -0.36364603 0.17377958 -0.6790993
000100 ad bc 1f bf 02 f5 69 bd a0 43 91 be 0c 38 cd 3e
       -0.6239727 -0.057118423 -0.28371906 0.40081823
000110 d7 71 e0 3e 82 60 d1 3e 97 88 01 3e f5 df c9 3e
       0.43836853 0.40893942 0.12649761 0.39428678
000120 e3 6d d9 3e a0 02 14 bf 07 58 e9 3e 11 a2 a1 bd
       0.4246665 -0.57816505 0.45574972 -0.0789224
000130 cc f4 e6 3e b8 53 13 3f 04 01 23 bf b7 29 b4 3e
       0.4510864 0.5754962 -0.63673425 0.35188076
000140 0c fb 54 3d 19 7a 05 3e ea d4 da 3e fe 81 fd 3e
       0.05199723 0.13034858 0.42740566 0.4951324
000150 ab 9d b0 be f8 29 a0 bd 9d f0 d8 3e 11 d5 44 bf
       -0.3449529 -0.07820505 0.42371073 -0.76887614
000160 4a 7d f4 3e e8 5a e6 3e ca 73 b0 3e 48 38 dd 3c
       0.47751838 0.4499123 0.3446334 0.027004376
000170 b0 41 ee 3c 0e 3b ba 37 94 ee bf bd 87 c1 1a bf
       0.029084057 2.2200427e-05 -0.09371677 -0.6045155
000180 c7 a9 bc bc 01 d3 df 3e bc b5 a0 3e ee 80 ee 3e
       -0.023030175 0.4371567 0.31388652 0.4658274

fc3.bias f4 [2]
000000 8e 5e 7d 3e 99 a0 96 3e
       0.24743101 0.294194
